weight parameter/external validation (expertML)/loading.param(W1_whole_non-ICU_lr_0.1).npy (npy, 908 bytes, 1 tensors)

array f4 [13, 15]
2.8141162 -4.225541 0.6000637 0.93056047 -3.9474058 -0.30847555 -1.8350948 -5.459905
1.11026 -0.5329762 -1.2828912 1.8076738 -3.9968467 5.2584476 -2.375856 -5.1274114
1.5610743 -5.283815 -5.1325006 -3.23515 -3.7576032 -4.1767244 4.6014495 -4.515889
4.7037826 -2.9982364 2.7936997 4.7022357 -0.8381965 -2.7340734 -3.1869764 -0.5605761
3.7680907 0.783793 -0.06083415 -0.1928689 -4.3444304 -0.34849826 4.923162 3.323956
-2.207553 4.6150465 0.16562408 3.7923405 2.1557488 2.3406672 6.3406982 -0.2787124
-0.22628759 -4.431232 -3.1353073 -0.7695196 0.108911105 3.9898179 2.928756 -3.919642
-3.774998 1.8836716 4.7514052 2.85452 1.1388357 1.5685108 -1.7459234 -1.1724175
-7.3143387 -0.2627286 -0.37655792 0.8301997 -1.8042753 -3.0343707 2.2781112 0.15231879
3.1750512 6.142942 0.40475944 0.7859946 -3.08063 -4.44943 -1.1808722 1.6911249
-2.860781 -3.1641927 1.731962 -0.15226778 -1.2933221 -0.20392305 2.994891 -4.281512
0.055645708 -3.9698796 2.48017 5.24455 5.7956147 4.016517 4.6301785 1.1542866
-4.5459847 -4.5207906 -5.5370893 -5.922177 -5.383875 1.2438227 3.9628649 1.8127766
-7.444919 0.9913425 5.527482 2.530859 4.3923025 1.6109345 0.6724521 3.2815537
0.70622844 4.1841874 4.8589807 3.5841627 6.4425864 -1.256686 2.8947725 3.21402
3.82449 -5.6301327 -5.3638797 -0.067124546 -4.989172 5.577332 6.024125 4.6281037
1.2869885 0.14362687 -0.017927483 -7.199294 0.63398623 3.6910973 3.6600301 -1.5918611
2.4854724 4.043861 1.8308207 1.3142126 -3.6613889 -6.366188 -4.540087 2.069367
-3.675828 4.9590526 -5.4217944 5.5948987 -5.5262556 2.7999363 -3.2769687 -1.4233427
2.2713506 1.2951542 0.27677342 -5.401519 -0.60886467 -2.3670166 6.4676948 1.1077622
-2.0005941 5.836211 2.496415 -1.220274 4.4572024 1.7474463 -2.5896854 3.2040439
1.3598187 4.35182 2.4552233 2.3831022 -0.16234101 -1.7634189 -1.3142456 1.3394383
0.16439296 -4.4732814 1.0716984 -1.9483275 -1.9932741 2.4537115 2.5856447 -0.37059873
-2.8054395 -1.9175676 -2.003548 1.646969 -0.421289 2.3839724 -2.5521996 2.3510184
0.6425429 2.3859587 0.7055613
00000000: 7b1a 3440 a237 87c0 c69d 193f 3639 6e3f
00000010: 4ca2 7cc0 82f0 9dbe 63e4 eabf 8bb7 aec0
00000020: 001d 8e3f 2171 08bf c735 a4bf db61 e73f
00000030: 56cc 7fc0 3445 a840 060e 18c0 c113 a4c0
00000040: 48d1 c73f 0315 a9c0 723d a4c0 b30c 4fc0
00000050: 927c 70c0 baa7 85c0 133f 9340 2a82 90c0
00000060: 6385 9640 1be3 3fc0 facb 3240 b778 9640
00000070: 0c94 56bf 0ffb 2ec0 6cf7 4bc0 ea81 0fbf
00000080: 6628 7140 a8a6 483f 3b2d 79bd 6d7f 45be
00000090: 9305 8bc0 5d6e b2be 8b8a 9d40 b2bb 5440
000000a0: 8c48 0dc0 76ae 9340 5c99 293e b5b5 7240
000000b0: caf7 0940 7ecd 1540 00e7 ca40 64b3 8ebe
000000c0: efb7 67be a7cc 8dc0 e0a8 48c0 3dff 44bf
000000d0: c90c df3d 2d59 7f40 bd70 3b40 6adb 7ac0
000000e0: 9199 71c0 271c f13f 830b 9840 75b0 3640
000000f0: 5ec5 913f f6c4 c83f 6b7a dfbf c711 96bf
00000100: 100f eac0 5d84 86be 33cc c0be f887 543f
00000110: 7ef2 e6bf 2133 42c0 93cc 1140 75f9 1b3e
00000120: 0a34 4b40 fb92 c440 a13c cf3e f136 493f
00000130: 0b29 45c0 bb61 8ec0 d226 97bf c876 d83f
00000140: 0917 37c0 2282 4ac0 eeb0 dd3f 16ec 1bbe
00000150: 948b a5bf 34d1 50be 4bac 3f40 2502 89c0
00000160: c1ec 633d 8212 7ec0 1bbb 1e40 5bd3 a740
00000170: ad75 b940 4f87 8040 6c2a 9440 aabf 933f
00000180: b578 91c0 51aa 90c0 d62f b1c0 7982 bdc0
00000190: b448 acc0 9535 9f3f 949f 7d40 1009 e83f
000001a0: c73c eec0 9fc8 7d3f 22e1 b040 98f9 2140
000001b0: be8d 8c40 1a33 ce3f d225 2c3f fa04 5240
000001c0: 63cb 343f dde4 8540 c57c 9b40 ec62 6540
000001d0: ab29 ce40 16db a0bf f443 3940 81b2 4d40
000001e0: 72c4 7440 0c2a b4c0 e7a4 abc0 9878 89bd
000001f0: 4ca7 9fc0 8179 b240 a2c5 c040 6d19 9440
00000200: 0abc a43f ec12 133e a8dc 92bc 9e60 e6c0
00000210: ec4c 223f f03a 6c40 ef3d 6a40 1bc2 cbbf
00000220: fb11 1f40 4f67 8140 5558 ea3f 1e38 a83f
00000230: 3254 6ac0 d0b7 cbc0 6548 91c0 8270 0440
00000240: c440 6bc0 8fb0 9e40 577f adc0 6909 b340
00000250: 16d7 b0c0 2832 3340 dbb9 51c0 1830 b6bf
00000260: cf5d 1140 9dc7 a53f 3fb5 8d3e 3ed9 acc0
00000270: 8ede 1bbf 337d 17c0 5bf7 ce40 27cb 8d3f
00000280: bc09 00c0 3ec2 ba40 43c5 1f40 f031 9cbf
00000290: 67a1 8e40 52ac df3f 68bd 25c0 0e0f 4d40
000002a0: 8a0e ae3f 1c42 8b40 6122 1d40 bf84 1840
000002b0: b93c 26be b6b7 e1bf 3339 a8bf b772 ab3f
000002c0: a156 283e 1f25 8fc0 6a2d 893f cc62 f9bf
000002d0: 9b23 ffbf 9c09 1d40 347b 2540 1ebf bdbe
000002e0: 528c 33c0 db72 f5bf 213a 00c0 e1cf d23f
000002f0: 31b3 d7be 0193 1840 3d57 23c0 1677 1640
00000300: b17d 243f 8cb3 1840 aa9f 343f
