weight parameter/external validation (expertML)/loading.param(W2_whole_non-ICU_lr_0.1).npy (npy, 848 bytes, 1 tensors)

array f4 [15, 12]
0	0x3f073aea	0.5282427
1	0x400fcf75	2.2470372
2	0x3f95a8df	1.169216
3	0xbf574222	-0.84085286
4	0x3f396258	0.72415686
5	0x3fd010f8	1.6255178
6	0x40aa2c79	5.317929
7	0xc07b44a3	-3.9260643
8	0xc02019b2	-2.5015683
9	0xbf5e19d7	-0.8675818
10	0xbf8736e8	-1.0563631
11	0xc06c0686	-3.6878982
12	0x40a28edf	5.0799403
13	0xc01ca257	-2.4474084
14	0xc037b081	-2.870148
15	0xc07e3272	-3.971829
16	0x400e125a	2.21987
17	0xbf04b2ef	-0.5183553
18	0xbfc4218d	-1.5322739
19	0xc0658729	-3.5863745
20	0x4058294b	3.3775203
21	0x3f9e7ad9	1.238124
22	0xbfa2897c	-1.2698207
23	0x402f2375	2.7365391
24	0x3f2dd637	0.6790499
25	0x401ee196	2.4825187
26	0x3fb4abe0	1.4114952
27	0x401d3db8	2.456892
28	0x406814d1	3.6262705
29	0xc01f8221	-2.4923174
30	0xc078b70b	-3.886172
31	0xc089ee0a	-4.3103075
32	0x402af539	2.6712172
33	0xc041c95e	-3.0279155
34	0xc04da779	-3.2133467
35	0xbff26771	-1.8937818
36	0xbecc7476	-0.39932603
37	0x3fd63400	1.6734619
38	0x3e109979	0.14121045
39	0x3f32ae4b	0.697972
40	0x3f8b9d64	1.0907407
41	0x3f024f18	0.5090194
42	0x3fbcdfa0	1.4755745
43	0x40431f37	3.0487802
44	0x402a7e8c	2.6639738
45	0xc0837b29	-4.108784
46	0xc07fafc0	-3.995102
47	0xc02f3132	-2.7373776
48	0x3ed7efe1	0.421752
49	0x3ff33d02	1.9002993
50	0x3f13d842	0.5775186
51	0x408c0e9f	4.376785
52	0xbf3ad9b5	-0.72988445
53	0x4041987a	3.0249314
54	0x4019c72d	2.4027817
55	0x3ee0285b	0.4378079
56	0xc08eaf0b	-4.4588675
57	0x3f28c535	0.65925914
58	0xc0475f4b	-3.1151912
59	0xbf9f5e8e	-1.2450731
60	0x3fd9aa54	1.7005105
61	0xc03867e9	-2.8813422
62	0x400e6147	2.2246873
63	0x40426e03	3.0379646
64	0x3e94afc8	0.2904036
65	0x401def39	2.467726
66	0xc02edda0	-2.732277
67	0x405307e2	3.2973561
68	0xc033e555	-2.8108723
69	0xc0129bf6	-2.290769
70	0xbf91cdc5	-1.1390921
71	0xbfd6d31d	-1.6783177
72	0x3f7c80e4	0.9863417
73	0xbfab64a6	-1.339009
74	0x400a0764	2.156701
75	0x405c0da2	3.438332
76	0x3e02329f	0.12714623
77	0x4044fcca	3.077929
78	0xbf207a86	-0.62686956
79	0xc04e8285	-3.2267163
80	0xc02c91fe	-2.6964107
81	0x3f6120b0	0.879405
82	0xbd8d8f1e	-0.06912063
83	0xc05234b1	-3.284466
84	0xc02df6bb	-2.7181842
85	0xc00574de	-2.085258
86	0xc0229e52	-2.540913
87	0x3ffe18c6	1.985131
88	0xbecb3c1a	-0.3969429
89	0x3db9e888	0.09077555
90	0xc0a337b6	-5.1005507
91	0x40618205	3.5235608
92	0x403a6acb	2.9127681
93	0x4019c544	2.4026651
94	0x3f9f332a	1.2437489
95	0x4014c408	2.3244648
96	0x400587d6	2.0864158
97	0x3f212a82	0.62955487
98	0x3e937920	0.2880335
99	0xc06b8799	-3.6801512
100	0x40354116	2.8320975
101	0xc05c1d9d	-3.4393075
102	0xbe57df15	-0.21081193
103	0x3f508b0a	0.81462157
104	0xbf135f0f	-0.5756692
105	0xc0433178	-3.0498943
106	0x40391956	2.8921714
107	0x3e330255	0.17481358
108	0xbf9686a1	-1.1759835
109	0xbfabf9ab	-1.3435568
110	0xc0013503	-2.0188606
111	0xbd2f5b32	-0.04281158
112	0xc0565a1d	-3.34925
113	0xc0138e37	-2.305555
114	0x40485e85	3.130769
115	0x3ee47727	0.44622156
116	0x405beade	3.4362102
117	0x3fd1aa61	1.638012
118	0x3ffd317e	1.9780729
119	0x403edd6e	2.982265
120	0xbe040dd8	-0.12895906
121	0x4001446f	2.0198019
122	0x3f125f85	0.57177
123	0x3eef334c	0.46718824
124	0xbf2f0a31	-0.68374926
125	0x3f85d0b2	1.0454314
126	0x40394f3a	2.8954606
127	0x4004c59b	2.0745609
128	0xbf8eb723	-1.1149639
129	0x40359049	2.8369315
130	0xc0586be5	-3.3815854
131	0xc0330117	-2.7969415
132	0xc0371d55	-2.8611653
133	0xc03c74c4	-2.9446268
134	0x403a425f	2.910301
135	0xbff0ccdf	-1.8812522
136	0x3f8a5d61	1.0809747
137	0xc07c8532	-3.9456296
138	0x3fb9b8fd	1.4509579
139	0xc06184e7	-3.5237367
140	0x405aa7e6	3.4164977
141	0x3f288d39	0.6584049
142	0x406651eb	3.5987499
143	0xc04e2d65	-3.2215207
144	0xc065a747	-3.5883348
145	0xc035a721	-2.8383257
146	0xc0496713	-3.1469162
147	0xc0807b2f	-4.015037
148	0x3f052a5d	0.52017766
149	0x403a280e	2.9086947
150	0x408b98f0	4.362419
151	0x40746725	3.8187954
152	0xc01b7fad	-2.4296677
153	0x40187aee	2.382503
154	0x402ce3f5	2.7014134
155	0x40127e72	2.2889676
156	0xc03cf6ff	-2.9525754
157	0xc005d4f4	-2.0911226
158	0xc064df98	-3.576147
159	0x40802421	4.0044103
160	0xbe933b20	-0.28756046
161	0xc0a1362c	-5.037863
162	0xc0726c1f	-3.7878492
163	0x40784398	3.8791256
164	0x40548e62	3.3211904
165	0xbeb70123	-0.35743055
166	0x3fe811b8	1.8130407
167	0x3d1d1ac4	0.038355604
168	0x40406c2d	3.0066025
169	0xc00e46dc	-2.223075
170	0xc03bd374	-2.934781
171	0xc04985a2	-3.1487813
172	0x403d658c	2.959323
173	0xc031ce09	-2.7782004
174	0x3fe718c1	1.8054429
175	0xc03ee7c8	-2.9828968
176	0xbffe02c3	-1.9844593
177	0xbee59c88	-0.44845986
178	0x403b091b	2.9224308
179	0x3fdfb447	1.7476891
