weight parameter/external validation (expertML)/maintenance.param(W1_whole_non-ICU_lr_0.1).npy (npy, 908 bytes, 1 tensors)

array f4 [13, 15]
00000000: 08dc 063e b0d8 aabf 038c 4640 c7c0 6940
00000010: f649 e93d 351e a33f d257 2a3f 5f17 5f40
00000020: c665 bdbf 889d 06bf e88f a13f 5f0b 4b3f
00000030: 9e1e 0c3f e107 7540 4ccf 20c0 defe 8cc0
00000040: b8f3 b83e 3ab4 de40 6deb 9dc0 d0bc afc0
00000050: cc9a 52c0 5dd7 bb3f aade 2ec0 df0e 66c0
00000060: 4feb 3640 c595 3140 41f5 6bc0 acdb f4bf
00000070: 50ad 69c0 2937 b3c0 d63b 8d40 854c 84c0
00000080: d4fb b3c0 8687 1440 fdf2 6a40 96b4 93c0
00000090: fbb9 35c0 ad3f 78c0 b791 c2be 10fe 3bbf
000000a0: 0ee8 0ec0 d196 5ac0 d5e0 6940 7b31 ba40
000000b0: 7ace 9240 a2be 78c0 8e91 7140 3e78 1440
000000c0: ec8e cdbf a26d 8ec0 7a99 8ec0 bbdc b9c0
000000d0: 4115 5640 909f 89c0 76e0 6c3f 5469 a8be
000000e0: 6911 61c0 b962 4ac0 bab7 acbf 3f27 c2bf
000000f0: 3e94 00c0 f3a6 b8c0 ac20 86bf e854 5f3f
00000100: a5ca 063f 830f d1bf 42ab 46c0 db4e 5dc0
00000110: cda5 91c0 91fe 4240 dad9 adc0 f7ad 07bf
00000120: 8cc2 7640 b2ed 7040 03ac b2bf dbbb 6ec0
00000130: 6fd9 3cbf 2153 67c0 5820 253f 1f00 32bd
00000140: 1b09 18c0 6ff8 0dc0 7554 a0bf e3b9 7240
00000150: a0af 9e3e 9107 c23f 5007 bf40 b44f 3640
00000160: da26 cabf 5809 7e40 582d 92c0 26c4 64bf
00000170: 4dff 73c0 3f1c 3240 dcbc 293f 61ca 983f
00000180: 2cc7 1d3f 5bae 86c0 df79 bcc0 45b4 8240
00000190: 8281 c7c0 0123 b340 4371 0a40 1860 0440
000001a0: 4f49 adc0 5da1 ae40 3ace 8e40 4bdb 35c0
000001b0: f754 9640 25de e3bd f492 6cc0 56c0 15c0
000001c0: 8587 1c40 1a4c 69bf 51b8 bbc0 88bb 1340
000001d0: 6810 5b40 b409 1a3f 20b3 23be 13e5 27c0
000001e0: 9d12 f9bf 011d 51c0 d918 7740 7753 2bc0
000001f0: fbe9 f1bf 7a26 3940 bad5 31c0 88d0 6040
00000200: 1e72 5340 1075 8e40 523d 8e40 cd77 dabf
00000210: e0a2 4540 6de6 8d40 3ab2 2540 8f78 0540
00000220: 2f71 8dc0 c1d7 73c0 7f80 4c40 3680 e1bf
00000230: c43d 0840 96d2 4e40 695b 95c0 2be4 adc0
00000240: 48d8 a13d 69bb a0c0 0ada c3bf e9ff a3c0
00000250: ecef d4c0 0284 fe3e 67ea 01bf 564a 7b40
00000260: 0994 58bf 0489 94c0 f2f7 713f dd1f 66bf
00000270: cec3 fcbe db26 e3bf cd86 0240 ec00 bbc0
00000280: 92e9 73c0 dae3 1e40 3a73 5240 6175 c7bf
00000290: f430 bbc0 a5b2 30c0 2154 0a3f 1e9b 0540
000002a0: c094 03bf 2e37 0740 8746 acbf 17eb 14c0
000002b0: 8e20 2a40 8132 1d40 9ff5 f63f 49bc 2040
000002c0: 0931 4dbf fc3e cc3f 8d7c 8a3f 0be2 eb3f
000002d0: 030e d23f 7a88 e53f 7a4c 09c0 2541 f23f
000002e0: 7831 c1bf bd5f 17c0 f7df c5bf 415f 90bf
000002f0: f4ae d0bf ebdc 0440 6b9b cebf 425a 0640
00000300: 835c febf fc13 f3bf c562 f0bf
0.13169873 -1.3347378 3.1022956 3.6523912 0.1139106 1.2743593 0.66540253 3.4858015
-1.4796684 -0.52584124 1.2622042 0.79314226 0.5473422 3.828606 -2.5126524 -4.4061117
0.36123443 6.9595003 -4.9349885 -5.4917984 -3.290698 1.4675099 -2.7323403 -3.5946577
2.858112 2.7747662 -3.686844 -1.9129539 -3.6512032 -5.6004834 4.413554 -4.134341
-5.6244907 2.3207717 3.6710808 -4.615794 -2.8394763 -3.8788865 -0.38001797 -0.73434544
-2.2329135 -3.415455 3.6543477 5.81854 4.5877047 -3.8866353 3.774509 2.319839
-1.6059241 -4.450883 -4.456235 -5.8081946 3.3450472 -4.300728 0.9253 -0.3289286
-3.5166876 -3.1622756 -1.3493569 -1.5168227 -2.009048 -5.7703795 -1.0478721 0.8723893
0.5265296 -1.6332859 -3.1042027 -3.457938 -4.5514894 3.0467875 -5.432843 -0.52999824
3.8556242 3.7645078 -1.3958744 -3.7302158 -0.7376928 -3.6144488 0.6450248 -0.043457147
-2.3755558 -2.2182882 -1.2525774 3.7925956 0.30993366 1.5158559 5.9696426 2.8486147
-1.5793107 3.9693203 -4.568035 -0.893618 -3.8124573 2.782974 0.663038 1.1936761
0.6163204 -4.2087836 -5.889877 4.0845056 -6.234559 5.598023 2.163163 2.068365
-5.415199 5.4571977 4.462674 -2.8415096 4.6978717 -0.11126355 -3.6964693 -2.3398643
2.4457715 -0.91131747 -5.8662496 2.308321 3.4228764 0.60171056 -0.159863 -2.6233566
-1.9458805 -3.2673953 3.8608916 -2.6769693 -1.889953 2.8929734 -2.7786698 3.5127277
3.3038402 4.45179 4.4449854 -1.706781 3.088066 4.434378 2.589003 2.0854833
-4.4200664 -3.8100436 3.1953428 -1.7617252 2.1287699 3.2316031 -4.6674085 -5.4341025
0.079025805 -5.022877 -1.5300915 -5.124989 -6.6542873 0.4971009 -0.50748295 3.926412
-0.84600884 -4.6417255 0.9451896 -0.8989237 -0.49368137 -1.7746233 2.0394776 -5.8438625
-3.811131 2.482657 3.2882829 -1.5582696 -5.8497257 -2.7609036 0.5403462 2.0875926
-0.5139885 2.112743 -1.3459023 -2.3268487 2.658237 2.4562075 1.9293708 2.511492
-0.80152947 1.5956721 1.081926 1.8428358 1.6410526 1.7932274 -2.1452928 1.892613
-1.5093222 -2.3652184 -1.5458974 -1.1279069 -1.6303391 2.0759838 -1.614118 2.099259
-1.9871982 -1.8990474 -1.8780142
