weight parameter/external validation (expertML)/maintenance.param(W2_whole_non-ICU_lr_0.1).npy (npy, 548 bytes, 1 tensors)

array f4 [15, 7]
000000 8a 8f 28 c0 91 79 35 40 78 bf b8 bf fb bb 83 40
       -2.633761 2.8355448 -1.4433432 4.116697
000010 bc 95 b7 bf 44 37 33 c0 da 01 c6 bf 34 0c 08 c0
       -1.434257 -2.8002481 -1.5469315 -2.1257448
000020 7b 78 62 c0 40 0f f1 3f f5 cd 0f 40 83 98 7f 40
       -3.5386035 1.8832779 2.2469456 3.9936836
000030 b7 d7 7c 3f d9 1b 8e be 1e e9 3c 40 50 c7 82 c0
       0.98766655 -0.2775562 2.9517283 -4.08683
000040 98 91 25 c0 0a 24 f2 bf eb ef f6 be 4d 33 4e 40
       -2.5870113 -1.8917248 -0.48229918 3.2218812
000050 00 68 a7 bf cf 25 d4 3e f0 27 cb 3f d8 7b 25 c0
       -1.3078613 0.41435096 1.5871563 -2.5856838
000060 38 b6 77 40 d0 19 48 c0 ac a2 0e c0 56 08 12 c0
       3.8704967 -3.1265755 -2.2286787 -2.2817588
000070 af c3 a4 3f 75 45 87 40 1a 86 66 c0 73 6b 45 c0
       1.2872218 4.2272286 -3.601935 -3.0846832
000080 9e 4f 8e bf 36 56 17 bf 8c 77 f6 be 27 7f e5 3f
       -1.1118047 -0.5911592 -0.48138082 1.7929429
000090 7f 6c 2b 40 86 5f 1c 40 c6 bd 84 c0 eb a5 ed be
       2.678497 2.4433303 -4.1481657 -0.46415648
0000a0 27 6b a0 bf 37 2e 26 bf 60 eb 36 c0 ab 52 7a 40
       -1.25327 -0.6491427 -2.8581161 3.9112957
0000b0 e5 7e 55 40 4d 13 cd bf 3e 6f 1a c0 7d 7d 84 bf
       3.33587 -1.6021515 -2.4130397 -1.0350796
0000c0 b9 50 18 bf 54 e3 2e 40 36 8a 2d c0 82 41 8e bf
       -0.59498173 2.732625 -2.7115607 -1.1113741
0000d0 92 ec a1 3f 0a c7 1d c0 2a 20 bd bf 1e ba 1e bf
       1.265032 -2.4652734 -1.4775441 -0.6200274
0000e0 8b dc 4e 40 3b b1 01 40 0c bd 85 c0 79 26 fa bf
       3.2322109 2.0264423 -4.179327 -1.9542991
0000f0 de 00 de bf 96 e9 0b bf 3d 87 f3 be 93 eb d9 3f
       -1.7344015 -0.546533 -0.47564116 1.7025017
000100 fd 3d 18 c0 7d 6b 87 c0 36 fa b0 3e 2b ab 82 bf
       -2.3787835 -4.231871 0.34565896 -1.0208486
000110 da 4e 2e 40 67 67 be 3f fd f2 1c 40 32 d5 81 bf
       2.7235627 1.4875306 2.4523308 -1.0143187
000120 26 99 d7 3f f7 19 83 c0 7d 13 07 40 e7 65 d4 bf
       1.6843612 -4.0969195 2.1105645 -1.6593598
000130 b5 30 dc be 34 41 05 c0 3d cb a4 bf 5e 16 83 40
       -0.4300591 -2.0821047 -1.2874523 4.0964804
000140 97 1e 1f 40 1b a2 46 3d 6c 00 f0 bf c6 01 d2 bf
       2.486242 0.04849444 -1.8750129 -1.6406791
000150 a7 d4 23 40 43 29 7c bf a2 ea e2 bc f4 5a 0f c0
       2.5598543 -0.9850046 -0.027699772 -2.2399263
000160 24 fa 33 40 ec c0 4c c0 f8 23 ac bf 02 98 03 40
       2.8121424 -3.199275 -1.3448477 2.0561528
000170 f4 5a 06 3f 36 52 99 40 02 19 29 c0 5b bf 50 c0
       0.52482533 4.7912855 -2.6421514 -3.2616794
000180 75 ef f1 bf 84 0b a8 bf 21 30 cb 3f 77 d1 6e c0
       -1.8901201 -1.3128514 1.5874063 -3.7315347
000190 7a e1 94 40 6c bc 3e c0 8e ab 1a c0 28 37 16 c0
       4.652524 -2.9802504 -2.4167209 -2.3471165
0001a0 0f 6b 2d 40
       2.7096593
